…
   "metadata": {},
   "outputs": [],
   "source": [
    "model=tuner_search.get_best_models(num_models=1)[0]"
   ]
  },
  {
   "cell_type": "code",
   "execution_count": 19,
   "id": "0a0efa35",
   "metadata": {},
   "outputs": [
    {
     "name": "stdout",
     "output_type": "stream",
     "text": [
      "Model: \"sequential\"\n",
      "_________________________________________________________________\n",
      "Layer (type)                 Output Shape              Param #   \n",
      "=================================================================\n",
      "conv2d (Conv2D)              (None, 28, 28, 352)       3520      \n",
      "_________________________________________________________________\n",
      "max_pooling2d (MaxPooling2D) (None, 14, 14, 352)       0         \n",
      "_________________________________________________________________\n",
      "dropout (Dropout)            (None, 14, 14, 352)       0         \n",
      "_________________________________________________________________\n",
      "conv2d_1 (Conv2D)            (None, 14, 14, 64)        202816    \n",
      "_________________________________________________________________\n",
      "flatten (Flatten)            (None, 12544)             0         \n",
      "_________________________________________________________________\n",
      "dense (Dense)                (None, 128)               1605760   \n",
      "_________________________________________________________________\n",
      "dense_1 (Dense)              (None, 80)                10320     \n",
      "_________________________________________________________________\n",
      "dropout_1 (Dropout)          (None, 80)                0         \n",
      "_________________________________________________________________\n",
      "dense_2 (Dense)              (None, 10)                810       \n",
      "=================================================================\n",
      "Total params: 1,823,226\n",
      "Trainable params: 1,823,226\n",
      "Non-trainable params: 0\n",
      "_________________________________________________________________\n"
     ]
    }
   ],
   "source": [
    "model.summary()"
   ]
  },
  {
   "cell_type": "code",
   "execution_count": null,
   "id": "aba7c515",
…
